…
ing_noisy_grads', use_fixed_w_mask_finding=True, use_last_layer_only_init=True, sparsity=0.2, epsilon=4.0, delta=1e-05, clipping=1.0, num_ranks=16, lora_alpha=0.5, lora_dropout=0.0, lora_bias='all', experiment_dir='sparta_experiment', seed=0, SLURM_JOB_ID=-1, TASK_ID=0, out_file='results_folder/sparta_experiment/wideresnet2810_cifar100_row_pruning_noisy_grads_4.0_0.2_10_True_0_0.txt', mask_type='optimization')
==> Preparing CIFAR 100 data..
Files already downloaded and verified
Files already downloaded and verified
train and test data loaders are ready
| Wide-Resnet 28x10
Wide_ResNet(
  (conv1): Conv2d(3, 16, kernel_size=(3, 3), stride=(1, 1), padding=(1, 1))
  (layer1): Sequential(
    (0): wide_basic(
      (bn1): GroupNorm(16, 16, eps=1e-05, affine=True)
      (conv1): Conv2d(16, 160, kernel_size=(3, 3), stride=(1, 1), padding=(1, 1))
      (dropout): Dropout(p=0.0, inplace=False)
      (bn2): GroupNorm(32, 160, eps=1e-05, affine=True)
      (conv2): Conv2d(160, 160, kernel_size=(3, 3), stride=(1, 1), padding=(1, 1))
      (shortcut): Sequential(
        (0): Conv2d(16, 160, kernel_size=(1, 1), stride=(1, 1))
      )
    )
    (1): wide_basic(
      (bn1): GroupNorm(32, 160, eps=1e-05, affine=True)
      (conv1): Conv2d(160, 160, kernel_size=(3, 3), stride=(1, 1), padding=(1, 1))
      (dropout): Dropout(p=0.0, inplace=False)
      (bn2): GroupNorm(32, 160, eps=1e-05, affine=True)
      (conv2): Conv2d(160, 160, kernel_size=(3, 3), stride=(1, 1), padding=(1, 1))
      (shortcut): Sequential()
    )
    (2): wide_basic(
      (bn1): GroupNorm(32, 160, eps=1e-05, affine=True)
      (conv1): Conv2d(160, 160, kernel_size=(3, 3), stride=(1, 1), padding=(1, 1))
      (dropout): Dropout(p=0.0, inplace=False)
      (bn2): GroupNorm(32, 160, eps=1e-05, affine=True)
      (conv2): Conv2d(160, 160, kernel_size=(3, 3), stride=(1, 1), padding=(1, 1))
      (shortcut): Sequential()
    )
    (3): wide_basic(
      (bn1): GroupNorm(32, 160, eps=1e-05, affine=True)
      (conv1): Conv2d(160, 160, kernel_size=(3, 3), stride=(1, 1), padding=(1, 1))
      (dropout): Dropout(p=0.0, inplace=False)
      (bn2): GroupNorm(32, 160, eps=1e-05, affine=True)
      (conv2): Conv2d(160, 160, kernel_size=(3, 3), stride=(1, 1), padding=(1, 1))
      (shortcut): Sequential()
    )
  )
  (layer2): Sequential(
    (0): wide_basic(
      (bn1): GroupNorm(32, 160, eps=1e-05, affine=True)
      (conv1): Conv2d(160, 320, kernel_size=(3, 3), stride=(1, 1), padding=(1, 1))
      (dropout): Dropout(p=0.0, inplace=False)
      (bn2): GroupNorm(32, 320, eps=1e-05, affine=True)
      (conv2): Conv2d(320, 320, kernel_size=(3, 3), stride=(2, 2), padding=(1, 1))
      (shortcut): Sequential(
        (0): Conv2d(160, 320, kernel_size=(1, 1), stride=(2, 2))
      )
    )
    (1): wide_basic(
      (bn1): GroupNorm(32, 320, eps=1e-05, affine=True)
      (conv1): Conv2d(320, 320, kernel_size=(3, 3), stride=(1, 1), padding=(1, 1))
      (dropout): Dropout(p=0.0, inplace=False)
      (bn2): GroupNorm(32, 320, eps=1e-05, affine=True)
      (conv2): Conv2d(320, 320, kernel_size=(3, 3), stride=(1, 1), padding=(1, 1))
      (shortcut): Sequential()
    )
    (2): wide_basic(
      (bn1): GroupNorm(32, 320, eps=1e-05, affine=True)
      (conv1): Conv2d(320, 320, kernel_size=(3, 3), stride=(1, 1), padding=(1, 1))
      (dropout): Dropout(p=0.0, inplace=False)
      (bn2): GroupNorm(32, 320, eps=1e-05, affine=True)
      (conv2): Conv2d(320, 320, kernel_size=(3, 3), stride=(1, 1), padding=(1, 1))
      (shortcut): Sequential()
    )
    (3): wide_basic(
      (bn1): GroupNorm(32, 320, eps=1e-05, affine=True)
      (conv1): Conv2d(320, 320, kernel_size=(3, 3), stride=(1, 1), padding=(1, 1))
      (dropout): Dropout(p=0.0, inplace=False)
      (bn2): GroupNorm(32, 320, eps=1e-05, affine=True)
      (conv2): Conv2d(320, 320, kernel_size=(3, 3), stride=(1, 1), padding=(1, 1))
      (shortcut): Sequential()
    )
  )
  (layer3): Sequential(
    (0): wide_basic(
      (bn1): GroupNorm(32, 320, eps=1e-05, affine=True)
      (conv1): Conv2d(320, 640, kernel_size=(3, 3), stride=(1, 1), padding=(1, 1))
      (dropout): Dropout(p=0.0, inplace=False)
      (bn2): GroupNorm(32, 640, eps=1e-05, affine=True)
      (conv2): Conv2d(640, 640, kernel_size=(3, 3), stride=(2, 2), padding=(1, 1))
      (shortcut): Sequential(
        (0): Conv2d(320, 640, kernel_size=(1, 1), stride=(2, 2))
      )
    )
    (1): wide_basic(
      (bn1): GroupNorm(32, 640, eps=1e-05, affine=True)
      (conv1): Conv2d(640, 640, kernel_size=(3, 3), stride=(1, 1), padding=(1, 1))
      (dropout): Dropout(p=0.0, inplace=False)
      (bn2): GroupNorm(32, 640, eps=1e-05, affine=True)
      (conv2): Conv2d(640, 640, kernel_size=(3, 3), stride=(1, 1), padding=(1, 1))
      (shortcut): Sequential()
    )
    (2): wide_basic(
      (bn1): GroupNorm(32, 640, eps=1e-05, affine=True)
      (conv1): Conv2d(640, 640, kernel_size=(3, 3), stride=(1, 1), padding=(1, 1))
      (dropout): Dropout(p=0.0, inplace=False)
      (bn2): GroupNorm(32, 640, eps=1e-05, affine=True)
      (conv2): Conv2d(640, 640, kernel_size=(3, 3), stride=(1, 1), padding=(1, 1))
      (shortcut): Sequential()
    )
    (3): wide_basic(
      (bn1): GroupNorm(32, 640, eps=1e-05, affine=True)
      (conv1): Conv2d(640, 640, kernel_size=(3, 3), stride=(1, 1), padding=(1, 1))
      (dropout): Dropout(p=0.0, inplace=False)
      (bn2): GroupNorm(32, 640, eps=1e-05, affine=True)
      (conv2): Conv2d(640, 640, kernel_size=(3, 3), stride=(1, 1), padding=(1, 1))
      (shortcut): Sequential()
    )
  )
  (bn1): GroupNorm(32, 640, eps=1e-05, affine=True)
  (linear): Linear(in_features=640, out_features=100, bias=True)
)
--- List of trainable params ---
conv1.weight
conv1.bias
layer1.0.bn1.weight
layer1.0.bn1.bias
layer1.0.conv1.weight
layer1.0.conv1.bias
layer1.0.bn2.weight
layer1.0.bn2.bias
layer1.0.conv2.weight
layer1.0.conv2.bias
layer1.0.shortcut.0.weight
layer1.0.shortcut.0.bias
layer1.1.bn1.weight
layer1.1.bn1.bias
layer1.1.conv1.weight
layer1.1.conv1.bias
layer1.1.bn2.weight
…
